spam_classifier.pt (torch, 453293 bytes, 4 tensors)

fc1.weight f4 [100, 1124]
-0.08273029 -0.06022328 -0.060047925 0.10702382 0.02914904 0.07748407 -0.09720166 -0.03815035
0.074999005 -0.12927547 0.12042242 -0.033544313 -0.10551998 0.054673508 -0.017264834 -0.15329288
-0.025127644 -0.08196449 -0.03907234 -0.051940944 -0.052762747 -0.051666826 -0.0020120812 -0.0341963
-0.06497307 0.044633534 -0.14207688 0.10614506 -0.041206818 0.10805771 0.091443926 0.039230384
-0.045745227 0.02910724 -0.006592697 0.14640184 -0.05084296 -0.10876021 0.05595374 -0.03806688
-0.023090305 -0.08186914 -0.08873268 -0.094504476 -0.05003702 -0.027396733 -0.045819204 -0.068063244
-0.030023031 0.11953737 0.17163175 -0.0683002 0.050708555 0.08098021 0.13093701 0.14344795
0.1210486 0.034166493 -0.075432725 0.020021498 -0.0059260614 0.026235308 0.123097405 -0.11321695
-0.021930736 -0.021359613 -0.0155546935 -0.05300767 -0.09101581 -0.09758802 -0.08896992 -0.043399148
0.0367355 0.06545216 0.004475847 -0.026301522 -0.045632448 -0.07577273 -0.052857105 0.1705631
-0.02470162 0.086085364 0.08259943 -0.035957437 0.054766707 -0.041430686 -0.09155276 -0.072247334
0.10152741 -0.05659823 -0.0416401 0.03125885 -0.0027486426 -0.08555667 -0.05186152 -0.04397426
0.041820604 0.06619254 -0.039288886 -0.053756863 -0.06040833 0.037744507 -0.034014285 0.02295269
0.054817032 0.06977925 0.0064095026 0.12079901 0.07853169 -3.718652e-05 -0.07836057 -0.020838235
-0.0006796282 -0.05328342 -0.057726774 0.071004845 0.0654916 0.07385585 0.002219157 -0.0928363
0.025149506 -0.06227903 0.026009988 -0.066729836 0.07248756 0.11450166 0.0757052 0.061988696
-0.04966078 -0.1259293 -0.0663899 -0.056968924 -0.06032564 0.06315038 0.104569465 0.022246636
-0.054295413 0.1980311 -0.09768292 -0.0044581844 0.03557504 -0.031895358 0.13193697 0.10717842
-0.04011757 0.014043707 0.110703945 -0.067931525 0.1245402 0.029370854 0.07835249 -0.05962225
-0.09202609 0.012286676 0.04920933 0.08069819 -0.045549292 0.055442117 0.038666815 -0.08675222
0.0024609007 0.054194964 0.073726825 0.12490314 -0.018506987 0.08958375 -0.066052586 0.008668712
-0.06301185 0.16969347 0.04980693 0.055750508 -0.004577372 0.03387007 -0.09663364 -0.02259744
-0.031894185 0.06532182 -0.006215451 0.041459102 0.09056815 0.10748999 0.10929099 0.0697422
0.12019275 -0.034494165 0.057584144 0.10787652 0.06189064 -0.04084951 -0.04131651 -0.020651434
-0.020728596 -0.03492877 -0.024281919 -0.007850435 -0.051721968 -0.039658707 -0.08307199 0.13483196
0.09593594 0.067498356 -0.0013607956 -0.070135735 0.032078933 -0.043386333 -0.05824082 -0.0385642
0.06272189 0.14145629 -0.055492025 -0.04589564 -0.010079818 -0.13201165 -0.029752985 -0.059222214
-0.09111879 0.063262075 -0.0107046245 -0.14437602 0.10604985 -0.06732129 -0.018677164 -0.018254267
-0.004879127 -0.036210418 -0.03775416 -0.034937486 -0.08511037 -0.056985334 0.06736595 -0.08063133
-0.07160534 -0.06995408 -0.04016245 -0.029224133 -0.029338444 -0.062996574 0.032733012 0.10133149
-0.024117855 -0.077756 -0.08996311 -0.12859531 -0.032017972 -0.064151414 -0.091336474 -0.03370022
-0.08802249 0.087105 -0.060291726 -0.082205355 -0.00896815 -0.05138159 -0.07251171 -0.033763815
00000000: 806e a9bd b0ac 76bd d0f4 75bd 4e2f db3d
00000010: f8c9 ee3c f8af 9e3d aa11 c7bd 8b43 1cbd
00000020: 1499 993d ca60 04be 08a0 f63d c365 09bd
00000030: dc1a d8bd 54f1 5f3d fb6e 8dbc cff8 1cbe
00000040: 7dd8 cdbc 00dd a7bd 510a 20bd 07c0 54bd
00000050: c01d 58bd 98a0 53bd 1fdd 03bb 6b11 0cbd
00000060: 9a10 85bd a7d1 363d 9a7c 11be 9562 d93d
00000070: 7bc8 28bd 5c4d dd3d f446 bb3d 0ab0 203d
00000080: 595f 3bbd 4e72 ee3c 8d07 d8bb 5dea 153e
00000090: b540 50bd acbd debd c02f 653d 04ec 1bbd
000000a0: e127 bdbc 02ab a7bd 7bb9 b5bd 908b c1bd
000000b0: 9ef3 4cbd 1d6f e0bc ebac 3bbd be64 8bbd
000000c0: dcf2 f5bc 02d0 f43d 3cc0 2f3e fae0 8bbd
000000d0: c6b3 4f3d f4d8 a53d 5a14 063e 05e4 123e
000000e0: 54e8 f73d 2af2 0b3d 797c 9abd 2004 a43c
000000f0: 682f c2bb 6eeb d63c 7e1a fc3d 4ade e7bd
00000100: 16a8 b3bc 5bfa aebc 1dd9 7ebc 921e 59bd
00000110: 7f66 babd 3adc c7bd dd35 b6bd 4ec3 31bd
00000120: f777 163d c80b 863d 20aa 923b 4a76 d7bc
00000130: 17e9 3abd bc2e 9bbd b180 58bd 18a8 2e3e
00000140: 0d5b cabc 864d b03d e429 a93d 1b48 13bd
00000150: 0e53 603d 39b3 29bd 0380 bbbd 69f6 93bd
00000160: 9aed cf3d 8cd3 67bd cf8e 2abd 4809 003d
00000170: 9222 34bb 5638 afbd bf6c 54bd 5b1e 34bd
00000180: 154c 2b3d f48f 873d 62ed 20bd 2830 5cbd
00000190: ba6e 77bd fc99 1a3d 9052 0bbd 4807 bc3c
000001a0: d387 603d 6ce8 8e3d ce06 d23b 7965 f73d
000001b0: 39d5 a03d b9f8 1bb8 827b a0bd f2b4 aabc
000001c0: 1429 32ba b73f 5abd e972 6cbd fd6a 913d
000001d0: 7620 863d bc41 973d 476f 113b f520 bebd
000001e0: 5606 ce3c 4c18 7fbd e612 d53c a7a9 88bd
000001f0: 5c74 943d d97f ea3d 540b 9b3d dce7 7d3d
00000200: 1a69 4bbd 9cf3 00be 6ef7 87bd 3f58 69bd
00000210: 0518 77bd fd54 813d 8428 d63d 943e b63c
00000220: de64 5ebd aac8 4a3e fc0d c8bd f615 92bb
00000230: 22b7 113d b5a4 02bd 7c1a 073e 5c80 db3d
00000240: 5252 24bd 9417 663c c0b8 e23d af1f 8bbd
00000250: ef0e ff3d 259b f03c 4577 a03d 7636 74bd
00000260: 2d78 bcbd 0e4e 493c b98f 493d 1845 a53d
00000270: e591 3abd 4617 633d 1861 1e3d 26ab b1bd
00000280: 1047 213b 8afb 5d3d 17fe 963d 38cd ff3d
00000290: f79b 97bc af77 b73d 9446 87bd 3707 0e3c
000002a0: 5b0c 81bd 20c4 2d3e 5a02 4c3d a55a 643d
000002b0: c8fd 95bb 58bb 0a3d dce7 c5bd 441e b9bc
000002c0: 7aa3 02bd 72c7 853d fbaa cbbb 05d1 293d
000002d0: cb7b b93d b623 dc3d f4d3 df3d 00d5 8e3d
000002e0: 9e27 f63d c149 0dbd 5add 6b3d 5dee dc3d
000002f0: 0a81 7d3d d151 27bd 803b 29bd 322d a9bc
00000300: 04cf a9bc 7811 0fbd e0ea c6bc 1c9f 00bc
00000310: 6ada 53bd 2b71 22bd a621 aabd 6411 0a3e
00000320: 107a c43d 943c 8a3d b95c b2ba 53a3 8fbd
00000330: 3365 033d deb5 31bd ed8d 6ebd 7ff5 1dbd
00000340: 5674 803d ebd9 103e 9b4b 63bd 11fd 3bbd
00000350: d225 25bc 102e 07be 88bc f3bc fe92 72bd
00000360: 7d9c babd 8c8f 813d 7362 2fbc 4fd7 13be
00000370: aa30 d93d bfdf 89bd da00 99bc f989 95bc
00000380: 15e1 9fbb 6051 14bd 1ba4 1abd 9c1a 0fbd
00000390: 584e aebd 7469 69bd 29f7 893d 0a22 a5bd
000003a0: d2a5 92bd 1644 8fbd 6281 24bd 7367 efbc
000003b0: 2d57 f0bc 5904 81bd 0d13 063d e286 cf3d
000003c0: cf92 c5bc 8a3e 9fbd 943e b8bd 7dae 03be
000003d0: 4725 03bd d161 83bd 9e0e bbbd 3e09 0abd
000003e0: 2345 b4bd 1b64 b23d 75f4 76bd 485b a8bd
000003f0: 26ef 12bc 8175 52bd 0581 94bd ed4b 0abd

fc1.bias f4 [100]
0.007362193 -0.005850948 0.14210774 0.13996851 0.006486973 -0.0006677979 -0.0030383468 0.017528083
0.011032649 0.17762789 0.14497857 0.13872944 0.16609496 0.036094517 0.13415755 0.03208809
0.013939321 0.16427468 0.021026997 0.14960688 0.14977515 0.009153703 0.13406761 0.14100379
0.0057173898 0.024491541 0.0038626613 0.006800745 0.1627187 0.17252421 0.16398028 0.03492221
0.0020524247 0.14878263 0.14146218 0.16402072 0.14741959 0.01593981 0.0077393996 0.01138789
0.014591398 0.14640093 -0.0011735994 0.12082661 0.1389295 0.13153943 0.17863938 0.14135833
0.13570121 0.1810092 0.16452576 0.15760824 0.16951914 0.13712113 0.01983453 0.016259277
0.0040476345 0.13260996 0.1268257 0.14472021 0.18503807 0.12735033 0.1293794 0.031708013
0.12795617 0.00656265 0.15960725 -0.00079882884 0.18878978 0.16317141 0.17535882 0.008231238
0.17020777 0.028218484 0.17215487 0.16979498 0.15951587 0.14790116 0.1337374 0.18845956
0.13710263 -0.009147793 0.0035001056 0.016320072 0.11908173 0.13223447 0.008066794 0.15323856
0.14956814 0.13474886 0.16533919 0.014819316 0.14868009 0.02175753 0.17742898 0.022158083
0.01435717 0.14359878 0.13710338 0.011313556
00000000: 8d3e f13b 4fb9 bfbb b184 113e e853 0f3e
00000010: ac90 d43b 290f 2fba 001f 47bb 0e97 8f3c
00000020: 49c2 343c 16e4 353e 4375 143e 170f 0e3e
00000030: cc14 2a3e d8d7 133d 9960 093e cd6e 033d
00000040: c061 643c 9f37 283e cf40 ac3c 8c32 193e
00000050: a85e 193e 6af9 153c 0549 093e 4c63 103e
00000060: f158 bb3b 7ca2 c83c b424 7d3b c9d8 de3b
00000070: bb9f 263e 30aa 303e 72ea 273e 970a 0f3d
00000080: f981 063b 795a 183e 76db 103e 0cf5 273e
00000090: 29f5 163e 3494 823c ca9a fd3b 4694 3a3c
000000a0: c210 6f3c 20ea 153e 76d3 99ba f173 f73d
000000b0: 8943 0e3e 46b2 063e 3eed 363e 3dc0 103e
000000c0: 42f5 0a3e 7a5a 393e 7179 283e 0e64 213e
000000d0: 6d96 2d3e 7b69 0c3e 067c a23c 2d32 853c
000000e0: 05a2 843b e8ca 073e 99de 013e 8931 143e
000000f0: 9f7a 3d3e 2068 023e 097c 043e 43e0 013d
00000100: f106 033e 800b d73b 1570 233e 7f68 51ba
00000110: 1c52 413e 6816 273e 4391 333e 51dc 063c
00000120: f24a 2e3e 732a e73c 5e49 303e bcde 2d3e
00000130: 2158 233e 6773 173e 75f2 083e 8bfb 403e
00000140: a264 0c3e a0e0 15bc 0762 653b acb1 853c
00000150: 1fe1 f33d 7968 073e 962a 043c 92ea 1c3e
00000160: 6428 193e 9bfb 093e ad4e 293e b7cc 723c
00000170: 983f 183e d93c b23c f1af 353e de84 b53c
00000180: 563a 6b3c 8f0b 133e d464 0c3e 7e5c 393c

fc2.weight f4 [2, 100]
-0.48814708 -0.67891455 0.32197738 0.2861982 -0.43923515 -0.38677883 -0.4993764 -0.5043626
-0.58895504 0.29246056 0.29377204 0.25701994 0.53353906 -0.44235867 0.2716598 -0.3858417
-0.4599822 0.21273299 -0.46734366 0.2516092 0.20500036 -0.4002297 0.28267506 0.31136987
-0.39836302 -0.43252987 -0.40943477 -0.5385159 0.27635336 0.26915175 0.25481433 -0.3508853
-0.39144436 0.36101493 0.29622328 0.21652307 0.48946497 0.62868065 -0.51384807 -0.4238706
-0.36611462 0.3559162 -0.53080624 0.29651412 0.28157207 0.29577172 0.44971788 0.28397492
0.2515297 0.41707593 0.18331397 0.31602976 0.25984967 0.39947885 -0.44465852 -0.4786582
-0.43343922 0.2960452 0.3182822 0.25494388 0.35733014 0.2937144 0.35130262 -0.42753252
0.35273233 -0.54874355 0.2834826 -0.38042086 0.48839346 0.302956 0.2767388 -0.41533113
0.47003317 -0.3930241 0.3061588 0.18149315 0.4652468 0.3600938 0.3325154 0.3424394
0.24847011 -0.5708558 -0.5650517 -0.35831442 0.32637662 0.24137257 -0.55708456 0.2988736
0.33701542 0.32537168 0.19328494 -0.54653376 0.29731035 -0.52175677 0.21909247 -0.40904203
-0.49864852 0.31404817 0.27910408 -0.41628918 0.5781386 0.56240416 -0.22123905 -0.26371643
0.50627255 0.37590274 0.5454374 0.368467 0.55603534 -0.28469563 -0.22049947 -0.28477007
-0.5691831 0.4595682 -0.2969666 0.44549352 0.42844138 -0.36919507 0.3868113 -0.23200633
-0.29506755 0.44685242 -0.30014205 -0.27797395 0.41100195 0.43672967 0.36528975 0.5260268
-0.23954573 -0.4576819 -0.28272128 0.46362787 0.37579402 -0.3475975 -0.26401627 -0.27747428
-0.54722214 -0.68164843 0.5110618 0.41208693 0.4271124 -0.24976563 0.61034316 -0.38297406
-0.34001377 -0.28551134 -0.3713354 -0.2443782 -0.3184346 -0.35494253 -0.31649897 -0.19584852
-0.22224139 -0.28620875 0.4545582 0.46590814 0.4869334 -0.27152342 -0.35119995 -0.2497553
-0.256781 -0.3233597 -0.34042972 0.34230858 -0.33377185 0.6324593 -0.28130013 0.32740062
-0.3252375 -0.15782903 -0.3584088 0.45614374 -0.50254387 0.4743617 -0.25464433 -0.29381692
-0.310284 -0.23316124 -0.37774932 -0.3596323 -0.3077922 0.5375517 0.53752476 0.37286246
-0.2874389 -0.32946214 0.5709524 -0.1794499 -0.220019 -0.31111813 -0.33789134 0.41280428
-0.21065988 0.5122344 -0.37179643 0.43276018 0.530493 -0.25475773 -0.2970718 0.33856165
00000000: 6aee f9be 58cd 2dbf 38da a43e 9288 923e
00000010: 6ee3 e0be e007 c6be 43ae ffbe e81d 01bf
00000020: c2c5 16bf 64bd 953e 4a69 963e 1e98 833e
00000030: 0496 083f d67c e2be fe16 8b3e 0b8d c5be
00000040: c982 ebbe add6 593e ab47 efbe ecd2 803e
00000050: 9deb 513e e8ea ccbe c9ba 903e df6b 9f3e
00000060: 3df6 cbbe 8e74 ddbe 6fa1 d1be 2edc 09bf
00000070: 307e 8d3e 42ce 893e 0677 823e 3da7 b3be
00000080: 656b c8be f3d6 b83e 94aa 973e 39b8 5d3e
00000090: 279b fa3e 37f1 203f 8c8b 03bf 9105 d9be
000000a0: 6073 bbbe a63a b63e ebe2 07bf b3d0 973e
000000b0: 372a 903e 646f 973e 6c41 e63e 2965 913e
000000c0: 80c8 803e fa8a d53e a8b6 3b3e a7ce a13e
000000d0: 040b 853e 7e88 cc3e 48aa e3be b012 f5be
000000e0: bfeb ddbe 3d93 973e e2f5 a23e 0188 823e
000000f0: faf3 b63e bc61 963e f0dd b33e 8be5 dabe
00000100: 5599 b43e 757a 0cbf a224 913e 86c6 c2be
00000110: b50e fa3e 0d1d 9b3e b5b0 8d3e 48a6 d4be
00000120: 30a8 f03e 743a c9be d9c0 9c3e 57d9 393e
00000130: d434 ee3e 375e b83e 753f aa3e 3854 af3e
00000140: f36e 7e3e 9b23 12bf 3aa7 10bf fd74 b7be
00000150: d61a a73e 5f2a 773e 189d 0ebf f605 993e
00000160: 498d ac3e 1e97 a63e 7dec 453e a3e9 0bbf
00000170: 1039 983e da91 05bf c759 603e f56d d1be
00000180: dc4e ffbe ecca a03e bbe6 8e3e db23 d5be
00000190: e400 143f b8f9 0f3f 7d8c 62be d705 87be
000001a0: 149b 013f 5376 c03e c9a1 0b3f b5a7 bc3e
000001b0: 5558 0e3f a0c3 91be 9dca 61be 62cd 91be
000001c0: fcb5 11bf 864c eb3e 020c 98be ba17 e43e
000001d0: ab5c db3e 2307 bdbe 210c c63e 1193 6dbe
000001e0: 1813 97be d7c9 e43e 38ac 99be 9a52 8ebe
000001f0: d96e d23e 089b df3e 4207 bb3e b1a9 063f
00000200: 7a4b 75be 4855 eabe d8c0 90be a260 ed3e
00000210: 1368 c03e 4df8 b1be 242d 87be 1c11 8ebe
00000220: c016 0cbf 8380 2ebf f2d4 023f 0ffd d23e
00000230: 7aae da3e 90c2 7fbe 733f 1c3f 2d15 c4be
00000240: 4916 aebe 8b2e 92be ac1f bebe 473e 7abe
00000250: dc09 a3be 07bb b5be 270c a2be 848c 48be
00000260: 3f93 63be f489 92be dabb e83e 838b ee3e
00000270: 564f f93e 1e05 8bbe 7bd0 b3be dabf 7fbe
00000280: cd78 83be 678f a5be ce4c aebe 1243 af3e
00000290: 25e4 aabe dae8 213f 9206 90be 0ea1 a73e
000002a0: 8885 a6be ef9d 21be 5c81 b7be ac8b e93e
000002b0: b7a6 00bf 89df f23e be60 82be 2c6f 96be
000002c0: 8bdd 9ebe d2c1 6ebe 5c68 c1be ba21 b8be
000002d0: f096 9dbe fd9c 093f 399b 093f d4e7 be3e
000002e0: 312b 93be 43af a8be f029 123f b7c1 37be
000002f0: a94c 61be e04a 9fbe 1800 adbe 155b d33e
00000300: 39b7 57be cb21 033f 1a5c bebe be92 dd3e
00000310: 64ce 073f 9b6f 82be cc19 98be f457 ad3e

fc2.bias f4 [2]
0.06408732 0.013140605
00000000: 3640 833d b14b 573c
